ppo.pt (torch, 2096 bytes, 3 tensors)

model.0.weight f4 [16, 1]
0.5399991 -0.30766428 0.102540374 -0.2213825 -0.9741726 0.5415941 -0.4129653 1.2062705
-0.14150906 0.7123569 -0.0031480836 -0.95629513 -0.063534625 0.0040416312 -0.35584703 -0.19134045
00000000: 623d 0a3f 2c86 9dbe b000 d23d 18b2 62be
00000010: 6063 79bf e9a5 0a3f 3070 d3be 1267 9a3f
00000020: c0e7 10be 065d 363f 1450 4ebb c2cf 74bf
00000030: 711e 82bd a96f 843b 9531 b6be c0ee 43be

model.0.bias f4 [16]
0.44680905 -0.1755091 -0.8348063 -0.9166775 -0.8649254 0.45887038 -0.49142063 -1.206336
-0.56108475 0.32926562 0.76509184 -0.035270777 0.7443271 0.97314125 0.35581934 -0.11714442
00000000: 28c4 e43e a8b8 33be deb5 55bf 60ab 6abf
00000010: c06b 5dbf 0ff1 ea3e 7c9b fbbe 3869 9abf
00000020: 40a3 0fbf 8195 a83e 0fdd 433f 1778 10bd
00000030: 398c 3e3f c91f 793f f42d b63e 6ae9 efbd

model.2.weight f4 [1, 16]
0.4464734 -0.1501039 -0.030474186 0.049223274 0.09273946 0.1648443 -0.14049983 0.7040173
-0.08154416 0.42985132 -0.3699005 -0.025814505 -0.116673425 0.053456604 0.3709624 0.078015655
00000000: 2998 e43e d6b4 19be 00a5 f9bc 589e 493d
00000010: 30ee bd3d f2cc 283e 30df 0fbe 7a3a 343f
00000020: a000 a7bd 7915 dc3e 9963 bdbe f178 d3bc
00000030: 7af2 eebd 50f5 5a3d c9ee bd3e acc6 9f3d
